preTrained/PPO_LunarLander-v2.pth (torch_old, 41440 bytes, 11 tensors)

action_layer.0.weight f4 [64, 8]
00000000: 270f cbbd dfe1 933e 3b15 493e 337f a33e
00000010: d7b3 d1bc c2bf 823e 493c acbe a8a9 b7be
00000020: 884a 693e 76b4 823e 4709 12bc 8567 dbbe
00000030: eaaf b13d a0cf c83d 6d85 3f3e 99be 833e
00000040: 53e4 8bbe a3d9 8cbe 9808 a4be cc46 0bbe
00000050: 1f41 e83e 83c2 b13e 1dc8 513e f58e cdbd
00000060: 8e43 213e 93f4 92bd c391 b03e 995e e2be
00000070: b1a6 b63d 2588 07be 6550 533e d349 99be
00000080: 3670 2bbe 83af 7fbd ffe5 af3e 7947 4bbe
00000090: 7c09 02be 5893 1cbe e204 83bc ede7 b1be
000000a0: ffa6 e3bd 0cd9 a1be 74f1 8dbe 81c8 5abe
000000b0: ed9b cd3e 042f 8f3e f224 5ebd 221b c13e
000000c0: 30da 0bbe cc37 523e d2ab 8c3e c1de 83be
000000d0: a385 b3be 9263 9bbe 2a6c 91bd 34b2 803e
000000e0: 70ce 75be 15a3 233e 9a55 d1bc 51a3 d43e
000000f0: e825 0d3f b385 1d3f 151b 833d fdbd 0e3e
00000100: b3fe 9cbe c85e a7bd a725 a6bd 53db c43d
00000110: a3e6 053f 46dc b93d 762a bf3e 9c21 543e
00000120: b92e 96be 8073 e23d ffa8 e8bd 7428 04bf
00000130: 5e77 9a3e d598 b1be 2029 cabd 4cdc bf3d
00000140: fce2 713e b0d4 5f3e a615 ba3b b30d 06bf
00000150: 863e 81be e676 793d 3296 80be 406e 183e
00000160: 4d5c 8ebd 9c93 7d3e 8d05 2abe a74a af3e
00000170: 4241 c0be 050b d63c 2f63 c7bc d49d 6ebe
00000180: 79ab 51bd 3aa1 f03d 8857 8fbe 5a0a dbbe
00000190: 0d75 9e3e e743 953e fe66 d53d c9d0 c03e
000001a0: 1542 9c3e 45b5 a7be 91ef 653d 65fa 63bd
000001b0: bff1 74be ee24 0a3c 426b c3bd 2145 94be
000001c0: 65b0 94be 1008 ae3c 613e c8be 53f5 0ebf
000001d0: 6463 903d 977a 0ebe 3257 17be fbdf 793d
000001e0: 0392 96be 6c35 323c 2241 9cbe c4c3 efbe
000001f0: 4d83 823e 3844 38bd e62a c93d 3815 1e3d
00000200: 7861 803e a3f1 3b3e f9c2 b6be 0a47 17bd
00000210: e57a 0f3f 67f3 fe3e f512 4d3e 6c66 953e
00000220: b9f8 80bd 8560 723e 82a7 843d 5933 f9bd
00000230: d045 d9be 40d7 0ebf 2477 07be bb40 6ebd
00000240: d54e 8c3e 0266 213e f341 a0be dafd 9bbe
00000250: 7e2e 593c 9c45 063f e6d5 3e3e 8834 0abd
00000260: e8f1 77ba 5bf9 0bbe 0c8f 8b3c 7977 ca3e
00000270: 60f3 f53e ffcc 4c3e a216 133e 1f72 a8bc
00000280: 215a 293e 6a0d d93d 28ad 90be e272 ff3e
00000290: 4aea 183e 8ec7 a83e bea0 4ebe cc69 d63e
000002a0: 4f5f f9bd de53 fdbd f561 933c e943 48be
000002b0: 0baa c8be 0d6e acbe 1adc 383e b0f2 823e
000002c0: c1fe cfbe ead6 a03e b84f 9c3d 3c82 d33d
000002d0: 340b 163f 923e 0f3f acac 143e c3fe 463d
000002e0: fb3b 673e 655c 863e 79fc 31be bf57 663e
000002f0: 2745 b23e b5cc e23e 605f 50be 5b64 af3e
00000300: b9e2 cfbd 14b0 c73e c6f1 40be 744e dd3e
00000310: 6d84 a73d ad3d 0bbe 4cc0 51bd fe73 67bd
00000320: 663f 063e 4ee4 a6be ff73 27bd fa1e 9abe
00000330: 117d bdbe 779b e7be b798 483e 3175 5cbe
00000340: 4d08 a63d 7f0a 18bd 0d57 ad3e 9c2e a63d
00000350: 765f 80bd 8981 593e fb86 d8be 459c fd3d
00000360: 7402 1cbe 482e bcbd cced cf3d dac1 733e
00000370: cd82 823e 719b f93e be8c 1abe 2a40 933e
00000380: f78d 08be 0172 bc3c d166 403e 5ca3 74bd
00000390: eebe b2bd 1880 983d b67d b3be 4faf 07be
000003a0: 87d8 a73d b7d8 ec3d 3d69 81be db8c a53e
000003b0: 2bf8 b1bc 8ef6 e13d 0c93 073f 3c50 8f3e
000003c0: 8499 81bc 7cef 4bbe e7ee 113e 8861 f9be
000003d0: 7fd9 93bc 7422 be3d 0874 a03e f799 113e
000003e0: 57a6 88be 07d8 6f3c 35d1 f2bd 2f1b 813e
000003f0: afe6 073f db43 1c3e 1819 993c 259c ba3e
-0.099149995 0.28883263 0.19637005 0.31932983 -0.02559845 0.25536925 -0.33639744 -0.35871625
0.22782338 0.25528306 -0.008913345 -0.42852417 0.08676131 0.09805226 0.18703242 0.25731352
-0.27322635 -0.27509794 -0.32037807 -0.13601226 0.45362183 0.34718713 0.20486493 -0.100370325
0.15748426 -0.07175555 0.34486207 -0.44212797 0.089185126 -0.13235529 0.20636137 -0.29939136
-0.16742024 -0.06242324 0.3435516 -0.19851483 -0.1269893 -0.15290582 -0.01599354 -0.34747258
-0.11115836 -0.31610906 -0.27723277 -0.21365549 0.40158024 0.27965558 -0.054234453 0.37716013
-0.1365745 0.20529097 0.27474838 -0.25755885 -0.35062894 -0.30349404 -0.07100709 0.25135958
-0.24004531 0.1598018 -0.025553513 0.4153085 0.55135965 0.61532134 0.0640165 0.13939662
-0.3066307 -0.08172375 -0.0811265 0.09612145 0.5230505 0.09075217 0.37337083 0.20715946
-0.29332522 0.11057186 -0.113603584 -0.51624227 0.30169195 -0.34686914 -0.09871125 0.0936819
0.23621744 0.21858478 0.00567885 -0.52364653 -0.25243014 0.060904406 -0.2511459 0.14885807
-0.06951199 0.2476334 -0.1660368 0.34236643 -0.37549788 0.026128301 -0.024339287 -0.23302394
-0.05118892 0.117495015 -0.2799647 -0.42781335 0.30948678 0.29153368 0.10420035 0.3765929
0.30519167 -0.32755485 0.05613667 -0.055658717 -0.23920344 0.008431656 -0.09541942 -0.2895899
-0.29040828 0.021244079 -0.3911009 -0.55843085 0.07050207 -0.13913952 -0.14779356 0.06100462
-0.29408273 0.010876995 -0.30518442 -0.46829045 0.254908 -0.044986933 0.09822635 0.038594455
0.25074363 0.18353896 -0.35695627 -0.036932983 0.560469 0.49795076 0.20026763 0.29179704
-0.0629744 0.23669632 0.06477262 -0.12167997 -0.42436075 -0.55797195 -0.13229042 -0.0581672
0.27403894 0.15761569 -0.31300315 -0.3046711 0.0132557135 0.52449965 0.18636283 -0.033741504
-0.0009458349 -0.1366934 0.017035984 0.39544275 0.48037243 0.20000075 0.14364102 -0.02056223
0.16538288 0.10598262 -0.28257108 0.49892336 0.14933124 0.32964748 -0.20178506 0.41877592
-0.12176382 -0.12369512 0.017991045 -0.19557156 -0.39192232 -0.33677712 0.18052712 0.2557578
-0.4062405 0.31413966 0.07632393 0.103275746 0.58610845 0.5595485 0.14518994 0.048582803
0.22581474 0.26242366 -0.17381467 0.2249441 0.34818384 0.44296804 -0.20348883 0.34256253
-0.10150666 0.39001524 -0.18842229 0.43223917 0.08179555 -0.13597746 -0.05120878 -0.056507103
0.13110122 -0.32596058 -0.040882107 -0.30101758 -0.3700948 -0.45235798 0.19589506 -0.2152908
0.08107052 -0.037119385 0.33855477 0.08114359 -0.06268208 0.2124082 -0.42290482 0.12383322
-0.15235311 -0.09188515 0.10152778 0.23804417 0.25490418 0.48751405 -0.15092751 0.2875989
-0.13335405 0.02300358 0.18789221 -0.059726104 -0.08727823 0.07446307 -0.35056847 -0.13250469
0.08195596 0.115647726 -0.25275603 0.32334027 -0.021724781 0.11033355 0.5295875 0.279909
-0.015820272 -0.19915575 0.1425129 -0.48707223 -0.018048046 0.09283915 0.31338525 0.14218889
-0.26689407 0.014638907 -0.11856309 0.25216052 0.5308637 0.1526026 0.018688723 0.36447254

action_layer.0.bias f4 [64]
00000000: 9d97 af3d 2509 efbd 5f97 f7bd d626 19bc
00000010: a660 90bd 5c23 033e a91a 4fbe d18f e03d
00000020: 23ff 813e 776d 0e3e 4587 863d d977 093e
00000030: 3137 0cbe 6695 5f3e bd9b 713e 8ee6 1f3e
00000040: c92c f43d 4d69 87be cf46 61be 5b9c 463c
00000050: a519 163d 5294 36be a862 c3bd 6368 863e
00000060: 8c74 78be bb4f 873e 2e65 b83d 38d2 fb3b
00000070: 7fff 1f3e 4b7b 503e 8f89 95be fee9 723e
00000080: 5129 8cbd 4cd3 743e f234 143e 714c 09be
00000090: e43a c0bd 405e 59be 9470 1f3d 1ce6 333e
000000a0: e646 88bc f609 0cbe 2a92 213e f25b 27be
000000b0: 27ac 803e 723c 08be f596 f93d 5b9a 683d
000000c0: 0953 6f3e b087 a4bd 8870 d73d 8a81 efbd
000000d0: 660c 83be 3076 c63d a2ef afbe f992 8bbe
000000e0: 01d1 743e b36a 02be a8bd 3d3e 00b7 6d3d
000000f0: a51f 6dbe a3a1 f63d 83cd 343e 1e23 61be
0.0857384 -0.11671666 -0.120894186 -0.009347638 -0.07049684 0.12806457 -0.20225014 0.10964931
0.25389966 0.13908945 0.06568769 0.13424625 -0.13692929 0.21834335 0.23594566 0.15615293
0.119226046 -0.26447526 -0.21999668 0.012122239 0.03664555 -0.17830017 -0.095403016 0.26251516
-0.24263209 0.26428017 0.090036735 0.007684972 0.15624808 0.20359533 -0.2920651 0.23722073
-0.06843818 0.23908728 0.14473322 -0.13408066 -0.093862325 -0.2122736 0.038925722 0.17568249
-0.01663537 -0.13675675 0.15778413 -0.16343668 0.25131342 -0.13304308 0.12186996 0.05678783
0.23371519 -0.08033693 0.105195105 -0.116946295 -0.25595397 0.09690511 -0.34362513 -0.2726057
0.23907854 -0.12736015 0.1852938 0.05803585 -0.23156603 0.120425485 0.17656521 -0.21986052

action_layer.2.weight f4 [64, 64]
00000000: b81d bbbd e171 4c3c bfe3 0cbd 8916 003d
00000010: a0d9 093e 5b8f c7bd 0661 cc3d 0af3 6dbe
00000020: 6b34 0cbe aeee 01bc c617 ee3d c47a b83d
00000030: f825 c4bd 0d9d 893d 154f 6abd 12f8 34bd
00000040: a673 b8bd 7dcc 173d 09b6 66bc cf06 4a3c
00000050: 5bf8 7cbe e49d a43d 28e7 8abd a058 05be
00000060: f25f 5dbe fe70 833e a2d1 cdbc 6a69 cabc
00000070: 227c 8abd 0d93 2e3c 32b8 133e 72a0 ecbd
00000080: b683 4b3d 58ab 92bd eae1 29be 66cb c4b9
00000090: 3220 113d 0f74 953d 3689 d2bd 53ec 36bc
000000a0: 77b5 073e 6e87 4cbe 0dd9 e93c d32a f4bd
000000b0: 09ea f63d cc14 033e 8ceb 763d 2091 573c
000000c0: a789 123d 8dc8 06be b98e bb3d 9e49 f5bd
000000d0: cb1b 303d f51a 813a e6f1 1dbe b543 8d3d
000000e0: 6fe3 0ebd 4cc1 c4bb 7f0b 8f3d 4c7a 82bc
000000f0: edcb 703c d35f a23d cbd4 073e 6973 923d
00000100: bb4c 343d 9763 883c e72c 18be 8889 e4bc
00000110: 37b4 143e a4ec 72be 4b99 06bd 75f1 b4ba
00000120: 5efe 74bc 4190 1bbd d2c1 a83c 2f1b 2b3e
00000130: 53e3 16be a0a5 46bd 07f0 18be 1406 17be
00000140: f8d8 94bd 8409 293e 774a 15be 7d4f 1e3c
00000150: 3da5 af3d 5aa3 1a3b fb8f 56bd b7fd c73d
00000160: b0c6 5f3e 9c20 d53c 5a53 063e 7c9e 9fbd
00000170: 37e6 173e 5d08 1fbe c768 de3a 1d31 b43d
00000180: ad8b 65bc f7a7 503e 47e0 383d 1a17 77bd
00000190: 50da f7bd 1292 e2bd 2599 b83d 0bfe 393e
000001a0: 1f9b b23c 749c 5fbc 0015 573d f77b 44bc
000001b0: 761c 2abd 2e07 dfbd 41e0 c33d fc1d e83d
000001c0: d512 b33d 24ca 8c3d e3ec 09be 1af1 2ebe
000001d0: e085 683d 1451 d53c c9a4 c13d ce9c bbbc
000001e0: 050c 453b 67ac cb3c f2be 4c3e d292 803d
000001f0: a022 403e d15c b4bc 0c9e 103e 647b d8bd
00000200: 7167 91bd 248a 7abc 7d37 873b f4dc ef3d
00000210: bd6b a23c 482b 333e 7535 a83d 3dfe 3fbe
00000220: 39c6 df3d 9928 153e 87e6 013d cddc 0abe
00000230: 5756 7d3e 2b87 9abc c147 083e 89a7 ad3d
00000240: 9e5f 173d 47b4 2f3c d01b f939 5308 00bc
00000250: d195 31bd 8ec0 063e 7707 ebbd a44b 7b3d
00000260: c176 8dbe 0f64 343e 3b91 60bc 4baf 26bd
00000270: b8c9 853d 73c2 a8bd fd0a e13d 266a 823d
00000280: 4e8a 3f3e 1385 49be 4f41 c2bd eb2e d53d
00000290: fcac 263e 0095 a3bb 1a5b 0ebe 7ade 61bd
000002a0: a6eb bdbb b44e f5bd 8c04 b33a ecdb 9f3d
000002b0: 3d8d c73d cd97 0e3e 8881 213e 8352 283d
000002c0: 97f2 4d3d 8dde 893d c93d ec3d 82ef 343e
000002d0: b6a9 cabd 9649 1a3e f8c0 18bd 3702 84bc
000002e0: 0eeb 44bd 6f12 15be 5331 32be 1a44 163e
000002f0: d962 8cbd 833a 323e e84e e2bd b55a 4f3e
00000300: 4e44 c73c ac33 a7bd c0ff ddbd d68b 963d
00000310: 38a5 af3d 4288 3ebd 1d2a 0bbd d1de 27be
00000320: 0d29 893c 14e4 00be 6999 7abd 3b8a a7bd
00000330: abf2 f3bd a49b ea3d 85b3 3bbc 13de f5bd
00000340: 2731 16bc 367a cc3d c84c 5bbe c1c6 3fbd
00000350: 3d4a 45be 8ece 183e 390f 76be 6b69 c9bd
00000360: 8b20 c3bc a0dd ea3d 0c22 a4bd 4d54 bdbd
00000370: 6187 953b a629 0c3d 300a aa3b 7be7 5dbc
00000380: ecca cdbd 1821 8b3d 1ddc 08be 9f32 65bd
00000390: 3273 fcbb 00ca 71bd cb3d 76bd 4d77 acbd
000003a0: bc44 1b3e cf39 f63c 4d77 db3a 65aa c93d
000003b0: 6fd8 3f3d 5a88 b43d a108 3d3c e7d8 ba3c
000003c0: 33ba 3a3c d03f c3bd 9d61 f53d 4ff5 16be
000003d0: 01be f9bd d39a 6ebd 691f b1be 5b18 863d
000003e0: 3e64 44bd 47de 303d 0133 d03d 7735 9b3c
000003f0: ab78 83bd 8bae 973d 4223 c73d c020 40bd
-0.09136528 0.012478323 -0.034396883 0.03127149 0.13461924 -0.0974414 0.09979443 -0.23237243
-0.13691871 -0.007930441 0.11625628 0.09007791 -0.095775545 0.06719408 -0.057204325 -0.04418189
-0.09006433 0.03706025 -0.0140814865 0.012330725 -0.24704115 0.08037928 -0.06782371 -0.13022089
-0.21618631 0.25672144 -0.025124375 -0.024708468 -0.06761958 0.010655177 0.14425734 -0.1155404
0.049686156 -0.071615875 -0.16590086 -0.00037535577 0.035431094 0.07297527 -0.10280077 -0.0111647425
0.13252817 -0.19973537 0.02854588 -0.119222306 0.120563574 0.12800902 0.06028323 0.013157159
0.035775807 -0.13162442 0.091580816 -0.11976932 0.042995255 0.0009849953 -0.15424308 0.0689768
-0.034884866 -0.006004488 0.069846146 -0.015927456 0.014697057 0.07928433 0.13264768 0.07150919
0.04401849 0.01664905 -0.14860879 -0.027897611 0.14521872 -0.23723084 -0.032861035 -0.001380487
-0.014953224 -0.037979368 0.020600233 0.16709588 -0.14735155 -0.048497796 -0.14935313 -0.14748412
-0.07267946 0.16507536 -0.14579187 0.009662506 0.085764386 0.00235959 -0.052383404 0.09765189
0.21853137 0.026016526 0.13117734 -0.077939 0.14833914 -0.15530534 0.0016968482 0.0879843
-0.014010352 0.20376574 0.045135763 -0.060324766 -0.12102187 -0.11063017 0.09013585 0.18163316
0.021802483 -0.013648141 0.05251026 -0.011992446 -0.04153105 -0.10890041 0.095642574 0.11333844
0.08743826 0.06874493 -0.13469271 -0.1708416 0.0567683 0.026039638 0.094552584 -0.022901919
0.0030066979 0.024862481 0.19994715 0.06278004 0.18763208 -0.022016915 0.1412279 -0.1057041
-0.07099808 -0.015291724 0.0041264878 0.11712065 0.019826764 0.17496979 0.08213321 -0.18749328
0.1092648 0.14566268 0.03171399 -0.13560791 0.24739967 -0.018863281 0.13308622 0.084792204
0.036956422 0.010724134 0.00047513703 -0.007814485 -0.043355767 0.13159391 -0.11476033 0.061351433
-0.27629665 0.17616294 -0.013706501 -0.040694516 0.065326154 -0.08240213 0.10988424 0.063679025
0.18705103 -0.1967967 -0.09485113 0.104093395 0.16276926 -0.0049921274 -0.1390194 -0.05514381
-0.0057959137 -0.11977902 0.0013657971 0.07805619 0.09743736 0.13925095 0.15772069 0.041094314
0.05028018 0.06731901 0.11535222 0.1766949 -0.09895651 0.15067133 -0.037293404 -0.016114337
-0.048075728 -0.14557813 -0.17401628 0.14674416 -0.06854791 0.17405133 -0.110502064 0.20249446
0.024324562 -0.081641525 -0.10839796 0.0735089 0.08576435 -0.046516664 -0.03397571 -0.16393591
0.016743207 -0.12587005 -0.06118146 -0.08180662 -0.119115196 0.11455467 -0.011456375 -0.12005248
-0.009166992 0.099842474 -0.21416008 -0.046820406 -0.19266601 0.14922544 -0.24029244 -0.0983456
-0.023819229 0.11468053 -0.080143064 -0.09244595 0.0045632576 0.034219407 0.0051892027 -0.013543959
-0.1004847 0.067934215 -0.13365217 -0.05595648 -0.007704162 -0.059030533 -0.060117524 -0.08421192
0.15162939 0.030056862 0.0016743928 0.09846953 0.046837267 0.088150695 0.011537702 0.022808505
0.011396932 -0.09533656 0.11981509 -0.14742015 -0.121944435 -0.05825312 -0.34594277 0.06547614
-0.04794716 0.04318073 0.10165978 0.018946392 -0.064195 0.07406338 0.09723522 -0.046906233

action_layer.2.bias f4 [64]
00000000: 8233 7c3d 6dda dcbd c1f7 363d 449d c53c
00000010: a22a b73d ef72 d3bc 4bcc d0bd 1b95 9e3d
00000020: b105 a33d 2383 f1bd 3524 13bc d2e7 09bd
00000030: 7b5c dfbc be53 01bd 1fc4 003e 5f04 693d
00000040: 4237 c63c 3741 7d3d 2be6 51bd 59e8 f93d
00000050: 278b 52bd f3d6 4f3b 76d3 9bbd a6b0 e93d
00000060: 6c93 db3b b43c 16bd 2494 d83d b119 c33d
00000070: c5d3 883c 8753 afbb 7bc9 103c 0bcd 5abd
00000080: 0531 b6bc 9ffd eb3c 374e 153c ef6e afbc
00000090: 2ec9 bebd 685f cc3b ecc5 b7bd 8dfa 7f3d
000000a0: 0b50 5abd f24d 543d 5af3 bbbd 9569 3a3d
000000b0: c65b 7a3c b06c 32bc 8a11 293a 0d3f 01bd
000000c0: 7cf9 cbbb ca17 82bd c61d 53bd ece3 87bb
000000d0: 6a4d 8dbd 7596 14bc 9509 d7bd 99fb 343d
000000e0: bf60 39bd 7abc 9a3d 0cda 22bd 94b5 02bd
000000f0: ba78 a03d e9b2 963c 9531 97bd 6e6e 033d
0.06157256 -0.10783849 0.04466987 0.024122842 0.089436784 -0.02581164 -0.10195216 0.07743283
0.0796007 -0.117925905 -0.0089808 -0.033668347 -0.027265778 -0.031574003 0.12574814 0.056888934
0.02419627 0.06182977 -0.051244896 0.1220252 -0.051402237 0.0031713813 -0.07608692 0.11410646
0.0067009237 -0.036678985 0.105751306 0.095263846 0.016702542 -0.0053505334 0.008837099 -0.0534182
-0.022240171 0.02880746 0.009112886 -0.021415202 -0.09315716 0.0062369592 -0.089732975 0.062494803
-0.05329899 0.051832147 -0.09177275 0.045510847 0.01528067 -0.010890171 0.0006449452 -0.03155427
-0.006224809 -0.06352194 -0.051542066 -0.0041470435 -0.06899531 -0.009069075 -0.104998745 0.044185255
-0.04525828 0.0755548 -0.039758727 -0.031911448 0.07835527 0.018395858 -0.07382504 0.032087736

action_layer.4.weight f4 [4, 64]
00000000: 3ddd f5bd 2661 e8bd 0961 853d 97ad 9cbd
00000010: 90fd 43bd 0296 343e 8341 1b3e b31d 103d
00000020: 55fa 4cbe 163b 1c3e 763e 0dbe 8196 b7bd
00000030: 3da3 0fbe ce79 093e 0c7a 66bd 6bca 2abe
00000040: 4ed4 b53b 0e5f bdbb 01be e73c 6fbb 053e
00000050: 1b11 74bb 3412 0d3e 9969 41bd 6cbf 4cbe
00000060: b84a cbbd a376 55bd 96ab 92bd d894 8e3e
00000070: adee 793e c0dd 24be 2240 883d cf66 083e
00000080: 081b ed3d cf3d 7c3d 31e0 5dbe 7a54 a73d
00000090: 6042 373e c812 523e d5a3 10be 41b3 203d
000000a0: d71c 203e e468 9ebe 5dd8 90bc 78e2 07bd
000000b0: 91d2 863d d43f 3fbe f24a c03c 2446 e13d
000000c0: 7cc4 e1bd c688 a0bd b255 e03d fb7b e63d
000000d0: 4435 163c 879d 1e3e 585e 87bd 2198 60be
000000e0: 975a 4d3e 3260 01be f02f 3fbe 1707 1d3e
000000f0: 2e58 bebd c4f5 0a3e 8469 983d fc1e 4e3e
00000100: c71d 1d3e 7f9a 3e3e cb59 1fbe 8bd0 3d3e
00000110: 9a3c e5bd 36bd 3f3e 1cef 03be e484 7cbe
00000120: 1025 1cbe 30d8 f63c bb7a 083e dcb5 7b3c
00000130: 9ebf 513e 7a99 15be ed5e 6d3e 2847 bc3b
00000140: 9969 41be b05f 23be 2e44 f8bd 3cf5 f03c
00000150: 596f 3cbe ea3c 1fbc 5550 7d3e 2d64 53bd
00000160: 0f00 063e d385 f5bd c200 1cbe c55a d0bb
00000170: 51d2 183d 723f 8e3d 3968 babd c327 9fbd
00000180: c29e 1bbd 7a58 48be 13ef fc3b 7dfe 20be
00000190: 83ab 81be c1cd 76be d6ba 523e 2821 403d
000001a0: 2c99 45be 9384 5e3c e033 8f3e 6cd6 39be
000001b0: a094 f8bd 6463 273e a0d6 0c3e f366 33be
000001c0: 3058 1abc d26f 01be 7181 f7bd 7d60 debd
000001d0: 602a 76be 36b6 01bd 8eb8 163e c977 3d3c
000001e0: 2cf0 32be 3a5e 0a3e 6d48 2f3e 04a3 bf3d
000001f0: 2ba8 873d 92a2 4ebe 2c63 75be c791 6bbd
00000200: d678 833e 75c8 e4bd 0af9 6a3e 409d 743d
00000210: 7bf8 1e3e 0473 0fbe b83f 2d3d 71e1 12bd
00000220: 20a8 733e cd47 4abd 8620 853e d96a cb3d
00000230: e1b1 dcbd 5947 6b3d fa87 2cbd 36f6 5b3e
00000240: 5f88 253e 3e7a c93d 54c4 8cbe c683 a53d
00000250: c274 023e abee 543d 3b43 10bc c2fd 543e
00000260: b8cf 8f3e 0fa3 d13c 03f5 243e c789 52be
00000270: 7ab0 03be ced8 f93d a0c8 e6bd 0b74 6fbe
00000280: 382f 15be 52d7 a63c ac3c e03c a7a5 d83d
00000290: 3125 0dbe 6ffb b73b 3714 793e 677c 353e
000002a0: b92f 14be f323 d03d a334 29be e6f9 503e
000002b0: 66a1 323e a2c2 a13d 94da 95bd f8f4 ed3d
000002c0: e779 a6bd 8667 073e 3215 40be 87e6 343e
000002d0: 6f38 87bd 531c a7bd 6339 e3bd d29e 023e
000002e0: de11 1bbe 830e 733e aac2 1c3e 2d28 883d
000002f0: c864 7a3e 31f9 29be 5237 87bd 2558 e6bd
00000300: 09cf 39be 9336 303d e9b4 18be 7259 27be
00000310: c5e7 203d 6d08 05be 75b1 c13d a177 353e
00000320: 8607 3abb 0290 ac3d 2590 cbbd 1ce9 dd3c
00000330: f204 24be acb0 183e 79e2 3cbd 306e 6abe
00000340: 94bc 9fbb 08bd 283e 74b6 423e fd67 20be
00000350: 633b 1a3d 6aa1 5cbe 95ed 8abd 2947 4a3d
00000360: e641 f1bd 9ae4 093e 019b 52bd 733d c33d
00000370: e4ac 833d 5fb4 79bc 26bf ef3b dbc7 de3d
00000380: fe59 41be 07f4 09be 39e3 623d 3827 063e
00000390: 068a 213e 659c 813e a8ac d2bb fd4b 5fbe
000003a0: 9613 073e 93da 19be 3fa5 bdbd 2557 57bc
000003b0: 0f64 0a3d 78c2 05be 4aad e2bd 29f3 a6bd
000003c0: 786c 0e3e b1f4 8a3d 22de f23d c78a 39bc
000003d0: 2c1f ab3d c257 33bc e4f2 2bbe bd06 35be
000003e0: 2984 b83d 36c6 a93d 2378 30bb 824c 04be
000003f0: a5f5 babd 2b5f 6f3e 42a1 573e dfa8 913d
-0.120050885 -0.113466546 0.065126486 -0.07650297 -0.047849238 0.17635348 0.1516171 0.035184573
-0.20017369 0.15256914 -0.13793358 -0.08964253 -0.14027114 0.13425371 -0.056268737 -0.16678779
0.0055489903 -0.0057791537 0.028288843 0.13059781 -0.003724164 0.13776475 -0.047219846 -0.19994897
-0.09926361 -0.052115094 -0.07161634 0.27847934 0.24407454 -0.16100216 0.06652857 0.13320468
0.115774214 0.061582383 -0.21667553 0.081704095 0.17896414 0.20514977 -0.14124997 0.03923345
0.15636002 -0.309394 -0.017681295 -0.03317496 0.06583131 -0.18676692 0.023473237 0.109997064
-0.110238045 -0.078385875 0.10953845 0.11254116 0.009167973 0.1548978 -0.066097915 -0.21933033
0.20054089 -0.12634352 -0.1867063 0.15334736 -0.09294163 0.13570315 0.074420005 0.20129007
0.1534339 0.18613623 -0.15561597 0.18536584 -0.111931995 0.18724522 -0.12884182 -0.24660069
-0.15248513 0.030132383 0.13328068 0.015363183 0.20483252 -0.14609328 0.23180743 0.005745787
-0.18887939 -0.1595447 -0.12122379 0.029413812 -0.18401851 -0.009719113 0.24737675 -0.051609207
0.1308596 -0.119884156 -0.15234664 -0.006358477 0.03730995 0.06945695 -0.0910191 -0.07771256
-0.0379932 -0.19565001 0.0077189296 -0.1572208 -0.25326166 -0.24101926 0.20579085 0.04690662
-0.19296712 0.013581413 0.27969265 -0.18148202 -0.12137723 0.16346508 0.13753748 -0.17519741
-0.00942044 -0.12640312 -0.12085236 -0.108582474 -0.24039602 -0.03166791 0.1471884 0.011564204
-0.17474431 0.13512507 0.17117472 0.09357265 0.06623872 -0.20179203 -0.23963612 -0.05751207
0.25678128 -0.11171047 0.22946563 0.059720278 0.15524475 -0.14008719 0.042297095 -0.03585953
0.23794603 -0.04938488 0.26001376 0.09932489 -0.10776115 0.05744109 -0.042121865 0.21480641
0.16165303 0.09837769 -0.27493536 0.080817744 0.12739852 0.051985424 -0.0088050915 0.20799926
0.28088164 0.025590448 0.1610909 -0.2056037 -0.12860289 0.12199555 -0.11268735 -0.2338411
-0.14568794 0.020366345 0.02737268 0.10578471 -0.13783719 0.00561469 0.24324118 0.17723237
-0.1447133 0.10163107 -0.16523986 0.20407829 0.17444381 0.078984514 -0.07317081 0.1161899
-0.0812872 0.13223085 -0.18758085 0.17666064 -0.06602561 -0.08159699 -0.1109493 0.12755898
-0.15143535 0.23736005 0.15308633 0.06648288 0.24452507 -0.16598965 -0.066023484 -0.11247281
-0.18145384 0.043020796 -0.14912762 -0.16342714 0.039283533 -0.12991495 0.09457675 0.17721416
-0.0028385832 0.08425905 -0.09939603 0.027088694 -0.16017511 0.14911145 -0.04611442 -0.22893596
-0.004874775 0.1647836 0.19014913 -0.15664668 0.03765429 -0.2154595 -0.067835964 0.04938427
-0.11780147 0.13466111 -0.051417354 0.09533205 0.06429461 -0.015240758 0.007316488 0.10877963
-0.18881986 -0.13471995 0.055392478 0.13100898 0.15775308 0.25314632 -0.0064292736 -0.21806331
0.13191065 -0.15024786 -0.09260034 -0.0131433355 0.03378683 -0.13062465 -0.110682085 -0.08151848
0.13908565 0.067849524 0.11858775 -0.011324591 0.08355555 -0.010946216 -0.16791874 -0.17678352
0.090095825 0.08289759 -0.0026927076 -0.1291981 -0.09128884 0.23376147 0.21057609 0.07112288

action_layer.4.bias f4 [4]
00000000: 2202 20bd d5fd b83a 977d 72bd 49c0 4a3d
-0.039064534 0.0014113734 -0.059201803 0.049499784

value_layer.0.weight f4 [64, 8]
00000000: 2ec4 c2be f5c5 b73e 273f 973d aa34 44bc
00000010: 093f 26be 4775 753e 504d 4f3e 57a4 babd
00000020: d2e1 f7be fa75 0bbe 5ede 723e c927 99be
00000030: be2d 08bd 5fb3 c83d 5ebf 82be 2a7a 2ebe
00000040: 7d18 243e c030 be3c dd3b 163e 0b3f db3d
00000050: 5fa3 893d 77ab 0dbe 28bf ae3e 1b53 aebc
00000060: 85af debd a993 2e3e aed9 b6bc be3b 2a3e
00000070: a7d8 d73e a84c 603e c612 4d3d 630e 2ebd
00000080: a6ef 643e 0e15 1c3e 8dfa ce3d 0e65 a43e
00000090: ff6d b33d d906 6e3e 2576 c2bd 4319 41bc
000000a0: cacb bdbe 00e4 80be bf03 8fbe 7fa6 a8be
000000b0: 69fe 69bd c078 7e3e 2cd3 013e 702c 9e3d
000000c0: ccd9 afbd 16f2 ccbe 480e f53d 2433 87be
000000d0: 375c 8bbe ac8a d83d 0680 18be 4794 18be
000000e0: aa40 99be e985 383e 0579 673e 33bb 843e
000000f0: 8caa 3fbe cf9f cd3d f1f4 c6be 9fc9 5d3d
00000100: 2f7a 62bc f27f 053d 9dc6 bdbd d800 0a3f
00000110: 8319 ec3d 3501 373e 3838 233d 6b4f 05be
00000120: 505a d13d d5d5 69be a4e7 84be 6398 86be
00000130: 3c6a 80be d9fc 8dbe 9db9 e93d c98c cbbc
00000140: 3427 76be b95b cebd 10bb fe3d 7488 793e
00000150: 5bac 92be fc08 5bbe dab8 043e f7d3 c73d
00000160: 4716 c63e 884a 91be 259e 3f3e 1936 a63e
00000170: 7455 53be a142 94bc a17d 013e 0d29 8c3e
00000180: bb4a 393e 873c 3fbe 4618 d1bd 347d 733e
00000190: 6a8a e43d 94ca b2bd fb0d 2b3d c257 eb3b
000001a0: 1948 9abe 3c47 b63c b743 b9bc fb19 28bc
000001b0: 352f 43be cbdc dc3d 09d1 c0bb 0143 903e
000001c0: 5236 e4bd a7bb b83e 7da2 0ebe 10e5 4c3e
000001d0: 7d6b 233e 5d7a 33bd f1fa 85bd af0e 82be
000001e0: 7160 82be b24b 823e c199 c4bc bbe1 cfbe
000001f0: ee46 94bd 603d 57be 9569 503e 95f7 da3e
00000200: 13ee be3d 3c5c 84bb 2481 813e 3e82 3c3d
00000210: 2617 9f3e b6f3 d93d c566 10be 97fc c53d
00000220: f5ca a03e f7db 19bb 01f8 923e 7bef 973e
00000230: 5e34 2fbe bc39 353d 286d 8d3e c772 433e
00000240: d3ab 8a3e 9fb1 32be 4852 37be 0bbf 40be
00000250: b865 953e b232 1abe d15b 863b d918 b83e
00000260: 1368 92be 5340 7fbe 5e49 5f3e 4973 613d
00000270: fc00 15bd 5623 493a 2ffe efbe db3e 9ebd
00000280: 5a61 73bd c62d 4a3e caf9 0dbd c4aa a93e
00000290: a173 7d3e 1502 b6be 2108 55be 24fc 9b3d
000002a0: ce25 f23e 3ab1 f1bd a7f1 153e be94 db3e
000002b0: 8484 1fbd bf4f 06be 8cfb c4bc 6c74 9abe
000002c0: 83fe bfbc 9bea 2a3e e23a 093e 0641 d9be
000002d0: a645 4e3d 2926 133d 4dab 9f3d 2fc1 e0be
000002e0: bef2 21bd 2e6a b0bd 6c4f 763e c187 bc3e
000002f0: a0f4 dc3d fae1 eebd 06ef ccbe 369f 1e3e
00000300: b998 c6be 317f cebd 96c5 663d 978b 2dbe
00000310: 0955 1dbe b6ab 2bbe 66da 3b3e e6c6 d3bb
00000320: 2e78 9bbe 4a1e 1a3e 4bc7 f53d 8a64 1ebe
00000330: eebd 063d ac54 963e fd71 0ebd 1949 863c
00000340: aea5 ec3e cd64 38be 31ee c43d f99b a53e
00000350: 445e 363e 18e1 5f3e 748c 143e b88c 8cbe
00000360: 474a 8c3e d039 8abe 9f89 873e ba19 f83d
00000370: 23c7 0c3e 70fb 29be 20f3 a23e cf1a 663e
00000380: af4f 15be 9c4f 8dbe ff31 72bc ef67 b23e
00000390: d69b 8abd fffa 113e 82bb a13e c423 cebd
000003a0: e683 f8bd 7437 59be fc2a fb3d 4946 48be
000003b0: 15d2 b33d c394 d93d 0392 233e 7996 be3e
000003c0: 2490 143e 800c 453e 4b87 f83d 3aff b0be
000003d0: 59d7 513e ad68 093e 8834 a4be ad25 9dbe
000003e0: f650 173e 26b3 7c3e 99dc 7d3c b863 423d
000003f0: c4a5 5bbe 5608 cbbd 225a 21be 81b4 f23d
-0.38040298 0.35893217 0.07385092 -0.011975447 -0.16234984 0.23970519 0.20244336 -0.091133766
-0.48414475 -0.13619223 0.23717639 -0.29913166 -0.03324675 0.09799837 -0.25536627 -0.1703879
0.16024967 0.023216605 0.14671274 0.10705384 0.06720614 -0.1383494 0.34130216 -0.021279862
-0.108733214 0.17048515 -0.022320595 0.16624352 0.4215748 0.21904242 0.050066732 -0.04249419
0.22357044 0.15242407 0.101063825 0.3210835 0.087612145 0.232448 -0.094951905 -0.011785808
-0.3706954 -0.2517395 -0.27932546 -0.32939526 -0.05712739 0.2485075 0.12678212 0.077233195
-0.08586463 -0.40028447 0.119656146 -0.26406205 -0.27218792 0.105733246 -0.14892587 -0.14900313
-0.29932147 0.18019833 0.22604759 0.25924072 -0.18717402 0.10040247 -0.3885875 0.05414736
-0.013823076 0.03259272 -0.09266398 0.5390754 0.115283035 0.17871554 0.039848536 -0.13018577
0.10222304 -0.22835477 -0.25957978 -0.26288137 -0.2508105 -0.2773197 0.11412356 -0.024847405
-0.24038392 -0.100760885 0.12438023 0.24368459 -0.28647122 -0.21390146 0.1296114 0.09757226
0.3868887 -0.28377175 0.18712671 0.32463148 -0.20638067 -0.018098177 0.1264558 0.2737507
0.18094914 -0.18675433 -0.10209708 0.2377823 0.11159213 -0.08730045 0.04176138 0.0071820924
-0.3013313 0.022250764 -0.022615297 -0.0102601005 -0.19060977 0.107843004 -0.005884294 0.2817612
-0.11143173 0.36080667 -0.13929172 0.20009255 0.15958972 -0.043817867 -0.06542004 -0.25401828
-0.25464204 0.25448376 -0.023999097 -0.40601906 -0.07240091 -0.21019506 0.20352776 0.42767015
0.09322753 -0.0040393155 0.2529384 0.046022646 0.31072348 0.10642187 -0.14101703 0.09667318
0.31404844 -0.0023477057 0.28704837 0.29674897 -0.1710982 0.044244513 0.27622342 0.19086753
0.27084216 -0.1745057 -0.17902482 -0.18822877 0.29179168 -0.15058401 0.004100301 0.35956457
-0.28595027 -0.24926881 0.21805331 0.055041585 -0.036377892 0.0007672807 -0.46873614 -0.077268325
-0.059419014 0.19744024 -0.034662046 0.33138096 0.2475114 -0.35548463 -0.20803882 0.076164514
0.47294468 -0.118013814 0.14642964 0.4288692 -0.038944736 -0.13116358 -0.024045728 -0.30166948
-0.02343679 0.16691057 0.13401368 -0.4243242 0.05035939 0.035925064 0.07796345 -0.43897387
-0.039538138 -0.08614002 0.24053735 0.36822322 0.10788846 -0.11664195 -0.4002611 0.15490422
-0.38788393 -0.100828536 0.056340776 -0.1694778 -0.1536447 -0.16764721 0.18345031 -0.0064629195
-0.30365127 0.15050617 0.12000903 -0.1546804 0.032895975 0.29361475 -0.034776676 0.016392278
0.46220154 -0.18007202 0.09615744 0.3234556 0.17809397 0.2186321 0.14506704 -0.2745111
0.2740042 -0.26997232 0.26472184 0.12114282 0.1374784 -0.16599822 0.31826115 0.22471164
-0.14581178 -0.275998 -0.014782428 0.3484492 -0.067680046 0.14255904 0.3158837 -0.100654155
-0.12134533 -0.2121256 0.12264058 -0.19558062 0.08780304 0.10624077 0.15973668 0.37224177
0.1450811 0.1924305 0.1213518 -0.34569722 0.20492305 0.13418837 -0.32071328 -0.30692807
0.14776978 0.24677715 0.015494489 0.04745838 -0.21449953 -0.09913699 -0.15757039 0.11850835

value_layer.0.bias f4 [64]
00000000: f64c 99bd e03d 5dbe 9e21 5cbd 4741 f63c
00000010: a1e6 67bd a4bd c23c 0dd0 1bbe 294c babc
00000020: 5c56 083d 7b8d 1d3e 947e be3d 586b 6c3e
00000030: 63c8 c43d 941b 6a3e 8ec1 8bbe 89a2 3ebe
00000040: 2646 5d3d 6a3b e33c dfab 473e 129a b1be
00000050: c844 1bbe 7cbc 973c f1a2 87be 18f6 c9bc
00000060: fa45 073e 4ad0 773c caf7 1e3d 81c9 0f3e
00000070: 90b7 b73e 45f3 68be 697b 2bbe 5fac 2f3e
00000080: 5a92 25be 0619 ce3d a5fd 933d a124 fcbd
00000090: 2908 973e a828 0c3d 93fa abbe a4df 843d
000000a0: 94f7 18bd aa46 a13d 9ad4 273c 4cdd 09be
000000b0: 8339 12be 6f9c 673d 63c9 d63d 6e67 153e
000000c0: b347 c83d e79e 743e 48a3 f3bd 37a9 8d3b
000000d0: 2253 983e f225 0dbe ba39 b3be bd0a adbd
000000e0: cec7 5b3d b514 9b3e 20e8 a5be 1868 26be
000000f0: 69de 3cbe bb78 a93e 1ba5 d9bc f533 a13e
-0.07485382 -0.21605635 -0.053742997 0.030060424 -0.05661643 0.023772068 -0.15216084 -0.022741394
0.033285484 0.15386002 0.093014866 0.23087823 0.09608533 0.22862083 -0.27296108 -0.1861669
0.054021977 0.027738292 0.19499157 -0.3468786 -0.15162957 0.018522494 -0.26491502 -0.02465348
0.13210288 0.015125344 0.03881053 0.14041711 0.35882235 -0.2274905 -0.16746296 0.17155598
-0.1616911 0.100633666 0.07226113 -0.12311674 0.29498413 0.03421846 -0.3358961 0.064879686
-0.037345484 0.07874806 0.010243559 -0.13463324 -0.14279751 0.05654567 0.1048763 0.14590237
0.097793005 0.23888741 -0.11896378 0.0043231505 0.29750925 -0.13784006 -0.3500498 -0.08449314
0.053657345 0.30289236 -0.3240366 -0.16250646 -0.18444218 0.33099923 -0.026567986 0.31484953

value_layer.2.weight f4 [64, 64]
00000000: 8f56 cfbd 8ab9 a23d 5020 913c db85 bd3d
00000010: dea9 2dbd 2646 b23d 14af fa3d d2ed ecbd
00000020: 094b 89bd 6576 8c3d 9662 92ba afbe 7bbd
00000030: a583 ec3c 322f 123e abd8 debd bc2d f63d
00000040: 4b9c f2bd 079e a53c a6e9 8e3d 4f38 133d
00000050: fc00 02be a8ee b6bd f969 bdbd 3322 7dbb
00000060: 2cdd c6bc 3fd1 c63d ff02 5839 3a6a e43b
00000070: b80a 1d3d cce8 91bd 5d80 1abe 41d1 2dbd
00000080: c10f c43d 7d28 dbbb 3172 fcbb 2f42 ad3d
00000090: 3600 9dbd 8a6f 00be 0b0a ad3d df85 07bd
000000a0: 3f28 a73c 4a4f d7bc 451a 803c 7a3b aabd
000000b0: bcea 103e d158 88bd e9d9 3a3d ec5d 85bd
000000c0: b4ac 78bd 9414 95bd 8433 7b3b b86b 2c3b
000000d0: fc25 073d 2ac1 b1bd abde a9bc 57af b6bd
000000e0: 8fe1 833d b358 9b3c 49c3 3ebb 0b43 a9bd
000000f0: 105a b13d 7b50 023c d7e5 273e 2ee3 a93b
00000100: 81b4 023e 7335 f5bd 019e 073e bd41 cf3d
00000110: ac4a c1bd 59d0 b9bd 83c9 583c 8749 8c3d
00000120: 3281 b0bd 5fbf a33d 1d7a 4b3d 7db5 a33d
00000130: 98f5 bdbd ac85 223d b48e d5bd 9d5f 163e
00000140: 5945 bd3d b67e 33bd 8531 b7bd 00eb 00bd
00000150: cb3e eabd 9a24 a9bc f44b 8dbd a837 c13b
00000160: fdd4 e23d e33b a3bd e813 a6bd 523f b03c
00000170: 2892 8c3d f3d3 edbd 4483 abbd 2343 d63d
00000180: 10f4 12be 95fa 7cbd 8263 95bd 6e29 103d
00000190: a1c9 793c 9fab 663c 1855 eb3d dca6 6fbd
000001a0: 5e82 89bd a486 b43d 55b1 bbbd 7dc5 8b3d
000001b0: b01b abbd d2bb b33d 6515 e3bc 6bcd 783d
000001c0: 93b4 d63d f7a2 68bd e553 a93d 13e3 e6bd
000001d0: 51ac 643d e953 c7bd c2f1 d13c 296b c4bd
000001e0: 277c 94bd d890 8c3d f91f 9ebd 625f 19bd
000001f0: 2c54 ffbc 23aa 66bd 07ff bc3d 7226 f63c
00000200: e1cb dcbd 935e 4dbd a292 bc3d b49d 9abc
00000210: c675 cb3d 69f3 283d 632b d73d a408 ad3d
00000220: f696 aabc 326f 65bb 3293 f63b 97e1 663b
00000230: ea94 63bc 172c 583b 607a abbc a798 0ebe
00000240: a612 9f3d 8463 903d 91e3 2d3d 40a4 913c
00000250: 171e 793d 1734 733c 5b45 3abc 8318 09bd
00000260: 3624 523d 82f1 a9bd 0923 693d 5898 a83d
00000270: c292 a23c 7727 24bd 2a23 3abd 6a28 f0bd
00000280: fa35 a3bd 88f6 afbd a967 bdbd 046e 153c
00000290: f148 203d e47c 01be 45f8 36be 007c b73d
000002a0: a2b4 583c 7cce a0bc e3de f43d a75a e53d
000002b0: 46e9 08be 0b6f 2ebd eb81 44bc 96a3 1e3e
000002c0: 3266 c2bc 1504 23bd 98da aebd a973 b7bb
000002d0: dc9b 923c 3e60 b53c 1dff c53c 84a3 b73d
000002e0: 698f 54bd 2ca3 173e 8768 05bd 9bb5 3b3d
000002f0: 2270 1ebe e91f 533d 601d 50bd 2b0a e0bd
00000300: 2425 02be adb8 8abd 03a1 9e3d c948 b33c
00000310: ab19 033e 5055 afbd defc d9bd c7cb e7bd
00000320: daa4 3abd 3975 91bd 564b c23d e72d e8bb
00000330: 698d 093e c6e6 e23d f8c4 b4bc 3f6f 91bd
00000340: c9f2 1bbd a776 47bd 703d 4fbc 0388 87bc
00000350: 2d97 2abd f095 023e c27f 0ebe 83d9 b63d
00000360: 6220 ddbd e3a8 b7bd 7080 0f3e 4581 48bd
00000370: 8307 f93c 8417 2ebd 6b65 6c3d 2d7d 903c
00000380: 1a46 3e3d 5f69 46bc df0d 343d 782d 04bd
00000390: 0959 86bd 76ba 153e 8a5c cabd 2041 aebd
000003a0: 87b9 8c3d 1025 d23d ca55 fc3d b48f b0bd
000003b0: 52c9 42bd c8b1 48be a032 273e 69c1 0b3e
000003c0: 5795 9f3d 179d 083e e667 9d3d 23f6 9cbd
000003d0: 9424 b33d 3c4e ae3a 2ef1 e2bd a5ee e4bd
000003e0: 2ada ebbb b555 423d 84cb 0dbd 16da ccbd
000003f0: 26b4 ccbc 80d9 5e3c 2503 78bb 1361 843d
-0.101239316 0.07945545 0.017715603 0.092540465 -0.042398326 0.08704786 0.12240425 -0.11568798
-0.06703765 0.068585195 -0.0011168297 -0.061461147 0.028871367 0.14275816 -0.1088117 0.12020442
-0.11846217 0.020216955 0.06978159 0.035942372 -0.12695688 -0.08932239 -0.09248728 -0.003862512
-0.024275385 0.09707879 0.00020600481 0.006970671 0.0383403 -0.071244806 -0.15088029 -0.04243589
0.09573317 -0.006688176 -0.0077040424 0.08459889 -0.07666056 -0.12542549 0.08449181 -0.033086654
0.020404933 -0.026282925 0.015637526 -0.083121255 0.14152044 -0.066575654 0.04561797 -0.06512055
-0.060711578 -0.072793156 0.0038330266 0.0026309323 0.03299521 -0.08679421 -0.02073606 -0.08920162
0.06439506 0.018963194 -0.0029108098 -0.082647406 0.08659756 0.007953758 0.1639627 0.0051845526
0.1276417 -0.11973085 0.13243867 0.101199605 -0.09438071 -0.09072942 0.013231638 0.06849962
-0.08618392 0.079954855 0.049677003 0.079936005 -0.09275359 0.03967826 -0.10427609 0.14684911
0.09241743 -0.043822013 -0.08944992 -0.031474113 -0.11437758 -0.020647336 -0.068992525 0.0058965273
0.110757805 -0.07970407 -0.081092656 0.021514568 0.068638146 -0.11612692 -0.08374646 0.10462024
-0.14350915 -0.06176241 -0.0729437 0.03519576 0.015245826 0.014079004 0.1149084 -0.05850874
-0.06714319 0.08814743 -0.09164683 0.06824777 -0.0835489 0.08776058 -0.027720163 0.060742777
0.104836605 -0.05679604 0.08267955 -0.1127378 0.055828396 -0.097328015 0.025627974 -0.09590752
-0.07250243 0.06863564 -0.07720942 -0.03744448 -0.031168066 -0.0563146 0.0922833 0.030047629
-0.10781074 -0.05013902 0.092076555 -0.018874027 0.09934573 0.04124776 0.10506322 0.08448914
-0.020823937 -0.0035008905 0.0075248713 0.0035229677 -0.013890484 0.0032985264 -0.020932376 -0.1392542
0.07767229 0.07050231 0.042453352 0.017778516 0.06081971 0.014843962 -0.011369075 -0.03347064
0.051304065 -0.08298017 0.056918178 0.08232182 0.01984537 -0.0400767 -0.04544369 -0.11726458
-0.079692796 -0.08591944 -0.09248287 0.009120468 0.039132062 -0.12645298 -0.17868145 0.08959198
0.01322666 -0.01962971 0.11956575 0.11198931 -0.13370237 -0.042586368 -0.0119938655 0.1549209
-0.023730371 -0.039798815 -0.08537787 -0.0055985046 0.017896585 0.022140618 0.024169499 0.08966735
-0.05189458 0.14808339 -0.03257039 0.04582749 -0.15472463 0.051544104 -0.050809264 -0.109394394
-0.1270948 -0.06773505 0.07745554 0.021885293 0.1280276 -0.08561194 -0.10643934 -0.11318164
-0.04556737 -0.071024366 0.094870254 -0.00708555 0.1343285 0.11079173 -0.022066578 -0.07101297
-0.038073335 -0.04869714 -0.012648925 -0.016544348 -0.04164808 0.12752509 -0.13915923 0.08928206
-0.10797192 -0.089677595 0.14013839 -0.048951406 0.03039909 -0.042502895 0.057713907 0.017637813
0.046453573 -0.012110083 0.04395854 -0.032269925 -0.06559951 0.1462191 -0.09880932 -0.08508515
0.06871324 0.10260975 0.123210505 -0.08621159 -0.047555275 -0.19599068 0.16327906 0.13647999
0.07792156 0.13341175 0.07685833 -0.07664134 0.08747211 0.0013298462 -0.110811576 -0.1117833
-0.007197638 0.047445018 -0.034617916 -0.10002534 -0.024988245 0.013601661 -0.003784367 0.06463828

value_layer.2.bias f4 [64]
00000000: 19a2 7cbc 3e87 753d 7b39 083d 4ebf e63d
00000010: 1367 31bd ecdf ff3c d006 10be 619c e93d
00000020: c116 1e3e 4212 13bd 132e aabd 27b4 033e
00000030: 0658 98bd a702 4dbe e6db dfbd 3f3e 1ebe
00000040: 0a12 b73c 119e 24bd 4272 36bb aeda 85bd
00000050: 323e 283e 9c8e 113e a600 043e a57a 973d
00000060: 6ce3 3bbd c712 fc3c d359 d9bc 8955 193e
00000070: fafc 0dbe e34a 873d 4468 f3bd 30c4 d2bd
00000080: 79fe 513d 98fd a9bd dd65 8d3a b2ba fc3d
00000090: 9516 e6bd 8023 d03d 74d6 373c 20a3 21be
000000a0: 6f16 b53d 4d14 4e3d f1bb 47bb 28e4 89bd
000000b0: f42b e0ba 2170 50bd 2123 c03c 772d 6d3d
000000c0: b3ba fd3c 41ca 0b3d ebcf d03b de06 423e
000000d0: 43da 62bb 9a4c a1bd 186d 9b3d b5bc 5abd
000000e0: b4d8 0fbe 4dc6 c3bc 9103 973c f555 023e
000000f0: 45ab 23bd ed31 1c3e d169 273e 6ad7 2dbe
-0.0154195065 0.05994343 0.033257943 0.11266957 -0.04331119 0.031234704 -0.14065099 0.1140678
0.15438367 -0.035906084 -0.08309569 0.12861691 -0.07438664 -0.20020543 -0.10930614 -0.15453433
0.022347469 -0.040189806 -0.00278391 -0.065358505 0.16429976 0.14214557 0.12890872 0.073964395
-0.045871183 0.030770672 -0.02653209 0.14974035 -0.13866034 0.066060804 -0.118851215 -0.10291326
0.051268075 -0.08300322 0.0010787804 0.12340297 -0.11234776 0.10163021 0.011220563 -0.15784883
0.088421695 0.05031233 -0.0030477012 -0.067329705 -0.0017102943 -0.050888184 0.02345425 0.057904687
0.030972814 0.03412843 0.006372442 0.18947932 -0.0034614957 -0.07875939 0.07589167 -0.05340262
-0.1404751 -0.023898268 0.018434318 0.12728103 -0.039958257 0.1525342 0.1634896 -0.16976705

value_layer.4.weight f4 [1, 64]
00000000: 2283 c03c 05b1 493d 3f3f 82bd f460 37bd
00000010: aea7 153b 2f3c 60bc 6bff 36bc 3988 74b8
00000020: 4361 77bd 4532 1d3d ff56 9e3b c937 00be
00000030: 597a 8a3b 7935 9d3c d7d1 c83c 96f4 953c
00000040: 3961 45bd a077 843b 6138 e53d d664 653d
00000050: ddfc c4bd 8f57 5c3d 14a7 cabd 2890 5a3c
00000060: cf26 5d3c 9aab d03d 84b0 523c 2ec2 20bd
00000070: 1209 473c f055 963c f282 6bbb 970d 5c3b
00000080: e596 093c ef96 72bc 7cd1 dd3b 9499 21bd
00000090: 1097 203c ee3d 68bd 5fb9 27bd 55ed 9abc
000000a0: fdef 813d dc35 cf3d 0a1c 073d 09bb bcbc
000000b0: 5b0c 143d f720 a63a 247e 803c 0fb5 60bb
000000c0: 2306 ea3c 86a3 0ebc c149 84bc aa36 3fbe
000000d0: 1289 9abc 87d6 2abd 0c5e ea3c fd4c 483d
000000e0: db24 27bc 0fde e13c 329c f1bc 802f 983c
000000f0: 8dc1 81bd cf58 02bd ef94 8ebd 0507 ee3c
0.023500029 0.049241085 -0.063597195 -0.044770196 0.002283554 -0.013686224 -0.011169295 -5.8301e-05
-0.06039549 0.03837802 0.004832148 -0.1252128 0.0042260108 0.019190537 0.024514122 0.018305104
-0.048188422 0.0040425807 0.11192394 0.056004368 -0.09618542 0.05379444 -0.09895149 0.013340034
0.013498022 0.101889804 0.012859467 -0.039247684 0.012148159 0.018351525 -0.0035936204 0.0033577436
0.0083977925 -0.014806493 0.0067693572 -0.039453104 0.009801641 -0.056699686 -0.040948268 -0.018911997
0.06344602 0.10117695 0.032985725 -0.023038404 0.036144596 0.0012674619 0.015685149 -0.0034287607
0.02856738 -0.008705979 -0.01614845 -0.18673196 -0.018864188 -0.041708495 0.028609298 0.048901547
-0.010201658 0.027571706 -0.029493425 0.018577337 -0.06335745 -0.031822976 -0.069620006 0.029056082
